XAI_CAR/models/lane_cnn_weights.pth (torch, 58059 bytes, 7 tensors)

encoder.0.weight f4 [16, 3, 3, 3]
0	0xbe32806a	-0.17431799
1	0xbe146ee0	-0.1449542
2	0xbe239f85	-0.1597882
3	0xbe36f45a	-0.1786665
4	0x3cfe3000	0.031028748
5	0x3cb8a538	0.02253972
6	0x3e143773	0.14474277
7	0x3da513fa	0.08060451
8	0x3e312135	0.17297824
9	0x3cf0d098	0.02939634
10	0xbe1d329e	-0.1535134
11	0x3e40f703	0.18844227
12	0x3dec156a	0.11527522
13	0xbd6929c0	-0.05692458
14	0x3de8ab26	0.11360769
15	0x3d9b8f8e	0.0759574
16	0xbb356380	-0.0027677715
17	0x3e32944d	0.17439385
18	0x3e28404b	0.16430776
19	0xbd9c61ff	-0.07635879
20	0x3da17086	0.0788279
21	0x3e082a9b	0.13297503
22	0x3d7ef0e4	0.06224145
23	0x3e293597	0.16524349
24	0x3e0b6d21	0.13615848
25	0xbe18ebec	-0.14933747
26	0xbdf8f640	-0.121563435
27	0xbcdc0c38	-0.026861295
28	0xbe030df6	-0.12798294
29	0x3e40696d	0.18790217
30	0x3e1a3d8f	0.15062545
31	0xbd9157ea	-0.070968464
32	0x3defa9ae	0.11702286
33	0xbdd39e2c	-0.10332903
34	0xbd1a9c44	-0.037746683
35	0x3d161c38	0.036648005
36	0x3dc40f4a	0.09573229
37	0xbd50fba4	-0.051021233
38	0xbdec312f	-0.115328185
39	0x3e20b3cf	0.15693592
40	0xbdb24ff2	-0.087066546
41	0x3de2f212	0.110813275
42	0x3e41cd09	0.18925871
43	0xbda771dd	-0.081760146
44	0xbe0e3e44	-0.1389094
45	0xbe2ed23d	-0.17072387
46	0x3e19de3f	0.15026186
47	0xbe3e76ca	-0.18600002
48	0x3d489c0c	0.048976943
49	0x3dee0c02	0.11623384
50	0xbd354420	-0.044254422
51	0x3df8d29e	0.12149547
52	0xbcd39778	-0.025829062
53	0x3c8424c8	0.01613082
54	0x3c1e18f0	0.0096495
55	0xbbabf4e0	-0.0052476972
56	0xbd185cf8	-0.037198037
57	0xbd9d34e9	-0.076761074
58	0xbd96b6b2	-0.07359065
59	0xbdb7d0cd	-0.089753725
60	0x3d336dec	0.043806
61	0x3c119970	0.00888668
62	0x3e0e03a7	0.13868581
63	0xbe2efac0	-0.17087841
64	0x3ce77818	0.028255507
65	0x3de0e666	0.10981445
66	0x3cf63d78	0.030058607
67	0x3e2a4ef5	0.16631682
68	0x3ddce106	0.10785107
69	0xbddc4d6d	-0.10756955
70	0xba789300	-0.0009482354
71	0xbddb8cd2	-0.10720219
72	0xbcdad6c0	-0.026713729
73	0x3e07d747	0.13265716
74	0xbd8a2364	-0.067450315
75	0x3e14966d	0.14510508
76	0xbe381449	-0.17976488
77	0xbe2682a0	-0.16260767
78	0xbe0f4272	-0.1399019
79	0x3dd01236	0.101597235
80	0xbb579c80	-0.0032899678
81	0x3de983d6	0.11402099
82	0xbe2822e2	-0.16419557
83	0xbd45c454	-0.048282936
84	0x3e428a41	0.18998052
85	0xbc91bd48	-0.017790452
86	0xbd348934	-0.04407616
87	0x3ce67248	0.028130665
88	0x3e07922d	0.13239355
89	0xbe2c65f6	-0.1683577
90	0xbe2c545a	-0.16829053
91	0x3d177964	0.036981
92	0x3df00e22	0.117214456
93	0xbd1f1c6c	-0.038845465
94	0x3dd2b6c2	0.102887645
95	0x3e1be49d	0.15223928
96	0xbdd16040	-0.10223436
97	0x3c81d008	0.015846267
98	0x3d88a41e	0.06671928
99	0x3d100f10	0.035170615
100	0x3b5df840	0.0033869892
101	0x3c9c1f50	0.0190579
102	0xbe3e135f	-0.18562077
103	0x3dc0f05e	0.094208464
104	0xbe435567	-0.19075547
105	0x3e165afd	0.14683147
106	0x3d3e81a0	0.04651034
107	0xbe140a39	-0.14457025
108	0x3e3f4765	0.18679579
109	0x3ba51aa0	0.0050385743
110	0xbe1b2c1b	-0.15153544
111	0x3da83cee	0.082147464
112	0xbd6dad30	-0.058026493
113	0xbd9adf0d	-0.07562075
114	0xbd124f2c	-0.035720035
115	0xbd919212	-0.07107939
116	0x3cb92f98	0.022605702
117	0x3e42f5d9	0.19039096
118	0xbe12fd8a	-0.1435453
119	0x3e3eeb2f	0.18644403
120	0x3e43642f	0.19081186
121	0x3c533c60	0.0128928125
122	0x3d92978e	0.07157813
123	0x3d933df6	0.071895525
124	0x3dc59566	0.09647636
125	0x3d2f1d60	0.042752624
126	0xbe2f6062	-0.17126611
127	0x3e44e1ad	0.19226713
128	0xbd836214	-0.06415191
129	0x3dfe1d5e	0.12407945
130	0xbd3685c0	-0.044561148
131	0x3e3f55fb	0.18685143
132	0xbe02941c	-0.12751812
133	0xbc1cc7c0	-0.0095691085
134	0xbe01e3a8	-0.126845
135	0x3b6d1f00	0.0036181808
136	0xbdf58360	-0.119879484
137	0x3e1e4463	0.15455775
138	0x3bcad3a0	0.0061897784
139	0xbe2f9747	-0.17147551
140	0xbca590f8	-0.020210728
141	0xbe35663a	-0.17714778
142	0x3e1b224b	0.151498
143	0x3da2cd7e	0.07949351
144	0x3e1532c7	0.14570151
145	0x3e24e0eb	0.16101424
146	0xbe1849e4	-0.14871937
147	0xbccb06b8	-0.024783477
148	0x3a486d00	0.0007645637
149	0x3e44637f	0.1917858
150	0x3e38e573	0.18056278
151	0xbd81b1f0	-0.06332767
152	0x3dca524e	0.098789796
153	0xbdfe436f	-0.12415206
154	0x3c85eae0	0.016347349
155	0x3e1933e3	0.149612
156	0xbdfa6702	-0.122266784
157	0xbe413a39	-0.18869866
158	0x3dad6bf2	0.084678546
159	0xbd866688	-0.06562525
160	0xbde32183	-0.11090376
161	0x3dcbf1b2	0.09958209
162	0xbdcb8196	-0.09936826
163	0xbe09db68	-0.13462603
164	0xbc392ba0	-0.011301905
165	0x3d90ffba	0.07080026
166	0x3cb5dc20	0.02219969
167	0x3dcf286e	0.10115133
168	0xbd1c8648	-0.038213998
169	0xbdc583c2	-0.096442714
170	0x3d9ab09e	0.07553218
171	0x3df1157a	0.117716745
172	0x3e105e53	0.14098482
173	0xbdb374f4	-0.087625414
174	0x3d66acc0	0.05631709
175	0x3e3dcb37	0.18534552
176	0xbd209e04	-0.039213195
177	0xbc8309f0	-0.01599595
178	0xbe32772f	-0.17428277
179	0xbe214ad2	-0.15751198
180	0x3e240a8d	0.1601965
181	0xba96a100	-0.0011492074
182	0x3d8a0caa	0.06740697
183	0xbdfd90ec	-0.12381157
184	0xbe099114	-0.13434249
185	0xbe3e9b84	-0.18614012
186	0x3dbb7c52	0.091545716
187	0xbdc3c1a5	-0.09558419
188	0x3e33bb49	0.17551912
189	0xbcdabe20	-0.026701987
190	0xbc9cf310	-0.01915887
191	0xbe1f420e	-0.15552542
192	0xbd95267c	-0.07282731
193	0x3e444dc9	0.19170298
194	0xbe3f858e	-0.18703291
195	0x3d103310	0.035204947
196	0xbd047b80	-0.03234434
197	0x3d99c9be	0.075091824
198	0xbd5dcea4	-0.054152146
199	0xbc9e96f8	-0.019359097
200	0xbc530180	-0.012878776
201	0xbe2a3e6e	-0.16625378
202	0x3ddb768a	0.10715969
203	0xbcb244c8	-0.021761313
204	0x3e2a9bd7	0.1666101
205	0xbda19ea4	-0.078915864
206	0x3deba452	0.11505951
207	0xbe1052aa	-0.14094034
208	0xbe2bff22	-0.16796544
209	0xbd4b8a28	-0.049692303
210	0x3e40bdff	0.18822478
211	0x3db5a5f6	0.08869545
212	0xbe2a7d9b	-0.16649477
213	0xbde9adb1	-0.11410082
214	0xbdca2e93	-0.098721646
215	0x3dbb8252	0.09155716
216	0xbe259be2	-0.16172746
217	0xbe207a40	-0.15671635
218	0xbe0f6e8d	-0.14007016
219	0xbd8517b0	-0.06498659
220	0x3e3b3199	0.18280639
221	0x3e228fd9	0.15875186
222	0xbdfbc43c	-0.12293288
223	0xbdecdd5b	-0.11565658
224	0x3d97ff7a	0.07421775
225	0x3e159b3f	0.14610003
226	0xbcf90750	-0.030398995
227	0xbe24c592	-0.16090992
228	0x3d0cb590	0.03435284
229	0xbe36e700	-0.17861557
230	0x3d1656d8	0.036703914
231	0x3dc1ef5e	0.09469484
232	0x3cb889f8	0.022526726
233	0x3d9059ae	0.07048355
234	0x3e367115	0.17816575
235	0xbd01c14c	-0.031678483
236	0x3d1e2724	0.038611546
237	0x3d92e3be	0.071723446
238	0xbb9a8960	-0.0047160834
239	0x3d805c3e	0.06267594
240	0xbdfc8a1c	-0.1233103
241	0x3c95ecd0	0.018301398
242	0x3dc1c416	0.094612285
243	0x3d2410a4	0.040054932
244	0xbbee85e0	-0.0072791427
245	0x3c5d60b0	0.013511822
246	0xbdac4073	-0.0841073
247	0x3db55f02	0.08856012
248	0xbdb90fbd	-0.09036205
249	0x3d9d6a4a	0.07686289
250	0x3d3c08f8	0.04590699
251	0x3e198797	0.1499313
252	0xbc6ef2d0	-0.014584258
253	0x3d94ed26	0.07271795
254	0x3e10f603	0.14156346
255	0xbd64e198	-0.055879205

encoder.0.bias f4 [16]
0	0x3cc1ff39	0.02368127
1	0x3dfa9dff	0.122371666
2	0xbd99d065	-0.07510451
3	0x3d1f4552	0.03888447
4	0x3e4e5377	0.20149027
5	0xbd96ec95	-0.07369343
6	0xbe0d08f4	-0.13772947
7	0x3e3ab0b2	0.18231466
8	0xbd67d918	-0.05660352
9	0x3e3d2fa6	0.18475208
10	0xbde1bd12	-0.110223904
11	0x3e0bc40a	0.13649002
12	0x3e1f2d98	0.15544736
13	0xbd635ff4	-0.05551143
14	0xbde31333	-0.11087646
15	0xbe11c042	-0.14233497

encoder.2.weight f4 [32, 16, 3, 3]
0	0x3d3bfe9a	0.045897104
1	0x3d0e62fe	0.034762375
2	0xbd44e898	-0.04807338
3	0x3d333b02	0.043757446
4	0x3cb0895c	0.021549873
5	0x3c67e558	0.014153801
6	0xbd2115bb	-0.039327364
7	0xbd6f7dce	-0.058469586
8	0x3d886397	0.0665962
9	0x3d0d2f5e	0.034469
10	0x3da7fccd	0.08202515
11	0xbca5eff4	-0.02025602
12	0x3d846ea5	0.06466416
13	0x3d13b8b2	0.03606481
14	0xbda00064	-0.078125745
15	0x3c994c90	0.018713266
16	0xbb07a280	-0.0020696223
17	0xbd8a9b1e	-0.067678675
18	0x3d6d89d2	0.057992764
19	0x3d9bc91f	0.0760672
20	0xbc87faac	-0.016599022
21	0x3c99b34c	0.018762253
22	0xbda4cf92	-0.080474034
23	0xbd2c3a33	-0.04204769
24	0xbd5080c6	-0.050904058
25	0x3d231828	0.03981796
26	0xbda1eae2	-0.079061285
27	0x3ca9c040	0.020721555
28	0xbd44e5a8	-0.04807058
29	0x3cfafa10	0.030636817
30	0x3d8c163d	0.06840179
31	0x3bff4900	0.0077906847
32	0x3c314858	0.010820471
33	0xbd9952f3	-0.074865244
34	0xbc0169b8	-0.0078987405
35	0xbceeac8c	-0.029135011
36	0xbd07ceb3	-0.033156108
37	0xbd0c9693	-0.034323286
38	0x3d64086e	0.0556721
39	0xbc571120	-0.0131266415
40	0x3d0277b2	0.03185243
41	0x3d0842d0	0.033266842
42	0x3cf617cc	0.030040644
43	0x3d8ee849	0.06977899
44	0x3d69619a	0.056977846
45	0xbc84fbec	-0.016233407
46	0x3c9cf674	0.019160487
47	0xbcefc4bc	-0.029268615
48	0x3d93583f	0.07194566
49	0x3bbe2670	0.005802922
50	0xbd82c723	-0.063856386
51	0x3d8c7a99	0.06859321
52	0x3bc17d40	0.0059048235
53	0xbd1adb3e	-0.037806742
54	0x3d133702	0.03594113
55	0x3d91ec25	0.07125119
56	0x3c8b559c	0.017008595
57	0xbd9fb98f	-0.07799064
58	0x3cbb24bc	0.022844665
59	0x3d0ece08	0.034864455
60	0xbc3bc4a8	-0.011460461
61	0xbd301683	-0.04299022
62	0xbb427b80	-0.0029675663
63	0xbd47596b	-0.04866926
64	0x3d3bb2fa	0.045824982
65	0xbd52abdb	-0.051433425
66	0xbd2ffb8e	-0.04296451
67	0xbd45b2fe	-0.048266403
68	0x3d0c234e	0.034213357
69	0xbd4144ee	-0.047184877
70	0xbcfa0a00	-0.030522346
71	0xbce48826	-0.027896952
72	0xbd5a7903	-0.053338062
73	0xbda90bd4	-0.08254209
74	0xbcf89ddc	-0.03034871
75	0xbd7745fb	-0.060369473
76	0x3d25ae12	0.04044921
77	0x3ba119d0	0.004916407
78	0xbd0bec8b	-0.03416113
79	0xbd26fdf8	-0.040769547
80	0x3d956689	0.07294948
81	0x3c1ed200	0.009693623
82	0xbc3f60a8	-0.0116807595
83	0xbcf1a960	-0.02949971
84	0xbd8c7327	-0.06857901
85	0xbd5998de	-0.0531243
86	0xbca604bc	-0.02026593
87	0x3c249118	0.010044359
88	0x3b923b00	0.0044625998
89	0x3d8b6de5	0.0680807
90	0xbc24ae48	-0.0100513175
91	0xbd4adc80	-0.04952669
92	0x3c5c8a18	0.0134606585
93	0x3cb18250	0.021668583
94	0x3ce0dd90	0.0274494
95	0xbd3cdc2b	-0.046108406
96	0xbd6ec1c8	-0.058290273
97	0xbd87b6c6	-0.06626658
98	0x3d84c505	0.06482891
99	0xbd9e5326	-0.07730703
100	0xbd264546	-0.040593408
101	0x3da1677d	0.07881067
102	0xbd78cb56	-0.06074079
103	0xbd83da46	-0.06438117
104	0x3a859b00	0.0010193288
105	0x3d9ae181	0.07562543
106	0xbb2fdee0	-0.0026835725
107	0xbcd38250	-0.025818974
108	0xbc92e26c	-0.017930232
109	0x3d0b0206	0.033937477
110	0x3da3b305	0.0799313
111	0x3d2d4e82	0.0423112
112	0xbd939780	-0.07206631
113	0xbd090860	-0.033455253
114	0x3d86b509	0.065774985
115	0xbd076ac8	-0.03306082
116	0xbd6c8a5b	-0.057749134
117	0x3c96f764	0.018428512
118	0x3d92cc6d	0.071678974
119	0xbd04e1d8	-0.032441944
120	0xbd7237ab	-0.05913512
121	0x3cf5ad90	0.029989988
122	0x3c538828	0.01291088
123	0x3ceb82c0	0.02874887
124	0xbda735ce	-0.08164559
125	0xbc4ca060	-0.012489408
126	0x3ce294bc	0.027658813
127	0x3d9e665b	0.077343665
128	0x3d150f0e	0.03639131
129	0x3d230e82	0.039808758
130	0x3d861ca9	0.06548435
131	0x3cb28f0c	0.021796726
132	0x3c3e17e0	0.011602372
133	0xbce73f56	-0.028228443
134	0xbd9b7e34	-0.07592431
135	0x3b9235b0	0.0044619665
136	0x3c3e8698	0.011628769
137	0x3d8e2dab	0.06942304
138	0x3d884da1	0.066554315
139	0xbd3d4446	-0.04620769
140	0xbd4f50c0	-0.05061412
141	0x3c169960	0.009191841
142	0x3d865315	0.065588154
143	0x3d1a9592	0.037740298
144	0x3b90c641	0.004418165
145	0x3d8bfb8e	0.068350896
146	0xbdab8c25	-0.0837634
147	0xbd717efd	-0.058958996
148	0x3be88ac8	0.007096622
149	0x3c45491b	0.0120413555
150	0x3d358a97	0.044321623
151	0x3d93982e	0.0720676
152	0xbc2dda35	-0.010611107
153	0x3d1fa970	0.038979948
154	0x3ccb200f	0.02479556
155	0x3d477be1	0.048702125
156	0xbc28284c	-0.010263514
157	0xbb0add10	-0.0021188892
158	0xbcb0198e	-0.02149656
159	0x3c32e40d	0.010918629
160	0xbd85452d	-0.06507335
161	0x3d43ebbe	0.047832243
162	0xbc68fe78	-0.014220826
163	0xbd1d4a6b	-0.03840105
164	0xbcc9c8bc	-0.02463185
165	0x3da210cd	0.07913361
166	0xbd1a5668	-0.03768006
167	0xbc018fe0	-0.007907838
168	0x3af6f540	0.0018841401
169	0xbda45748	-0.0802446
170	0xbcb26a50	-0.02177921
171	0xbd9f1d67	-0.0776928
172	0x3d3f4514	0.046696737
173	0xbdb0f72d	-0.08640895
174	0xbd876acf	-0.06612169
175	0x3d2d2b6a	0.04227773
176	0xbd5fbd53	-0.054623913
177	0xbd7d5cf5	-0.06185623
178	0xbdba2921	-0.09089876
179	0xbd09dc7a	-0.03365753
180	0x3d3c292b	0.0459377
181	0xbd5a2cf7	-0.053265538
182	0xbd4dcf57	-0.050246563
183	0xbd313416	-0.043262564
184	0x3d95e898	0.07319754
185	0x3c6e2123	0.014534268
186	0xbc49a152	-0.012306528
187	0x3d6de570	0.058080137
188	0x3d133333	0.0359375
189	0x3d81b329	0.06333
190	0x3d61389a	0.05498562
191	0xbd0dc76e	-0.03461402
192	0x3d276d2e	0.040875606
193	0x3d64895a	0.05579505
194	0x3d71484a	0.05890683
195	0xbd73c650	-0.059515297
196	0x3d961899	0.073289104
197	0x3d797782	0.060904987
198	0x3ced91c4	0.02900017
199	0x3d11ef80	0.035628796
200	0x3d9c3861	0.07627941
201	0xbd48c72b	-0.049018066
202	0x3d5c5836	0.053795062
203	0x3d005590	0.0313316
204	0xbc3b8100	-0.01144433
205	0xbd852c7b	-0.065026246
206	0x3d3d44d2	0.04620821
207	0xbdb97d28	-0.09057075
208	0xbdb79cd7	-0.08965462
209	0xbc2a3964	-0.01038966
210	0x3d86c6ca	0.06580885
211	0xbbeb507e	-0.0071812263
212	0x3d968c7f	0.07351016
213	0x39b71dd6	0.0003492671
214	0xbd37dd99	-0.044889066
215	0x3d770e37	0.06031629
216	0x3be469c0	0.006970614
217	0x3d0e0cee	0.0346803
218	0x3d32a17a	0.043611027
219	0x3a59ae80	0.00083038956
220	0xbda62714	-0.08112922
221	0x3bd3f430	0.0064683184
222	0xbd131df0	-0.035917222
223	0xbc3fcfa8	-0.011707224
224	0x3d8a6abf	0.067586415
225	0xbb010be9	-0.0019690937
226	0xbd1499b7	-0.036279406
227	0x3d6f1250	0.058367074
228	0xbd095a46	-0.033533357
229	0x3c10d9ab	0.008840959
230	0x3be238d8	0.006903749
231	0x3d121c59	0.035671566
232	0x3d207744	0.03917624
233	0xbd088838	-0.033333033
234	0x3d6567c6	0.05600717
235	0x3d864751	0.06556571
236	0xbcb26060	-0.02177447
237	0xbcaf0d70	-0.021368712
238	0x3c9b3cfc	0.018949978
239	0x3d8f8423	0.07007625
240	0x3d01d72e	0.031699352
241	0xbb98c690	-0.0046623424
242	0x3d3ba3e2	0.045810588
243	0xbd5e933e	-0.05433964
244	0x3cd16ec4	0.025565512
245	0x3c6c2950	0.014414147
246	0xbccfc521	-0.025362553
247	0xbbc4b139	-0.006002572
248	0xbb2bf8b1	-0.002624076
249	0x3d914def	0.07094943
250	0xbd90b266	-0.07065277
251	0x3d4924bd	0.049107302
252	0x3d54ec89	0.05198339
253	0xbd7792e3	-0.060442816
254	0x3d50c515	0.050969202
255	0xbda0aabd	-0.07845066

encoder.2.bias f4 [32]
0	0xbd91774e	-0.07102834
1	0xbce4c397	-0.027925296
2	0xbd98082a	-0.07423432
3	0x3bd31270	0.006441407
4	0x3c6d98e0	0.01450178
5	0xbd270b94	-0.040782526
6	0x3d9d72eb	0.076879345
7	0x3d316f41	0.04331899
8	0x3d5fb52e	0.054616146
9	0xbc85ab41	-0.016317012
10	0x3bb5814b	0.0055390946
11	0xbbe920b0	-0.0071144924
12	0xbd0800a5	-0.03320374
13	0x3c987cd6	0.018614214
14	0x3d233c9d	0.039852727
15	0xbc090926	-0.008363998
16	0x3d1eb958	0.038750976
17	0xbcfd4b06	-0.030919563
18	0xbd6bb32e	-0.057543926
19	0xbb847540	-0.0040422976
20	0xbd6f5cd6	-0.058438145
21	0xbd6fc966	-0.058541678
22	0x3d921b02	0.071340576
23	0xbcc91e51	-0.024550589
24	0x3d418610	0.047246993
25	0xbd9d7bf7	-0.0768966
26	0x3d4f4227	0.050600197
27	0x3c762f62	0.015025945
28	0xbd00cef7	-0.031447377
29	0xbd1ca8ce	-0.038246922
30	0x3cc3dda9	0.023909407
31	0x3cf2861a	0.02960496

decoder.0.weight f4 [32, 16, 4, 4]
0	0xbd0f1386	-0.03493073
1	0xbd725c70	-0.059170187
2	0x3d02ff48	0.031981736
3	0xbce61060	-0.02808398
4	0xbc864104	-0.016388424
5	0x3d6ad95e	0.057336204
6	0x3d6e6eb6	0.05821105
7	0x3b02e900	0.0019975305
8	0xbd131a30	-0.035913646
9	0x3ca3d144	0.019997247
10	0x3d0d859e	0.034551255
11	0xbd127a7c	-0.03576134
12	0x3cba9988	0.022778288
13	0xbcbca488	-0.023027673
14	0x3bc1bac0	0.005912155
15	0xbd54a092	-0.051910944
16	0x3d28e8e4	0.041237727
17	0x3d30a728	0.043128163
18	0x3b682c80	0.0035426915
19	0xbd2fac1e	-0.042888753
20	0xbcf50364	-0.029908843
21	0xbcc29198	-0.023751065
22	0xbc83a808	-0.016071334
23	0xbca00ed8	-0.019538328
24	0x3d462850	0.04837829
25	0x3d7df492	0.06200082
26	0x3cb220f4	0.021744229
27	0xbc4f2c50	-0.012644842
28	0xb98b7000	-0.00026595592
29	0xbd43be92	-0.047789164
30	0x3c21c298	0.009873055
31	0x3d45f69a	0.04833088
32	0xbcec25b4	-0.028826572
33	0x3d1cae24	0.03825201
34	0xbd67c550	-0.056584656
35	0xbd3a2b46	-0.045451425
36	0xbd0631c8	-0.03276232
37	0xbccf8d20	-0.025335848
38	0x3d60c0b2	0.05487127
39	0x3d328a6a	0.043589033
40	0x3d25910c	0.04042153
41	0x3ccb92cc	0.024850272
42	0x3d159fc6	0.036529325
43	0x3d574a1c	0.05256091
44	0x3ca5e288	0.02024962
45	0x3d2d9abe	0.0423839
46	0xba9476c0	-0.0011326894
47	0x3d7622e6	0.060091875
48	0x3d2b8ac0	0.04188037
49	0xbd0969ec	-0.03354828
50	0xbcd97814	-0.026546516
51	0x3ce6e264	0.028184123
52	0xbc0d30e8	-0.008617617
53	0x3d772628	0.060339123
54	0xbd792ca0	-0.060833573
55	0x3d25c2ee	0.040469103
56	0xbc9e4d20	-0.019323885
57	0x3d2da44c	0.042393014
58	0xbd01de6c	-0.03170626
59	0x3cfd7cac	0.030943237
60	0x3c612e18	0.0137439
61	0xbaf99e40	-0.0019044355
62	0x3d7ad598	0.061238855
63	0x3d54f6c4	0.051993147
64	0x3c1a3740	0.009412587
65	0x3cd6d5b4	0.026224948
66	0xbc9b301c	-0.018943839
67	0xbd050e00	-0.032484055
68	0xbd515350	-0.051104844
69	0xbd54e578	-0.05197665
70	0x3993f100	0.00028217584
71	0x3d47dd3c	0.04879497
72	0x3d243270	0.040087163
73	0xbd160024	-0.036621228
74	0xbbabbf50	-0.005241312
75	0x3aff2600	0.0019466281
76	0x3d7aebda	0.06126008
77	0x3d24f07a	0.0402684
78	0xbb37c300	-0.0028039813
79	0xbd78674c	-0.060645387
80	0xbc76b080	-0.015056729
81	0xbc446e38	-0.011989169
82	0xbd6c1de6	-0.0576457
83	0xbd21f200	-0.03953743
84	0xbd284f12	-0.041091032
85	0xbd556306	-0.05209639
86	0x3d767eb2	0.06017942
87	0x3caf1e60	0.021376789
88	0xbd1962c6	-0.037447713
89	0x3d18016c	0.03711073
90	0xbd49ba3c	-0.049249873
91	0xbd7e9102	-0.06215001
92	0x3ce3dc3c	0.027814977
93	0xbd684680	-0.05670786
94	0x3d33ac42	0.04386545
95	0x3d234e82	0.039869793
96	0xbd780516	-0.060551725
97	0x3bb862f0	0.0056270286
98	0x3bfcfa60	0.0077202767
99	0x3d7f30c0	0.06230235
100	0x3bdfe0f0	0.0068322346
101	0xbd1b5c4a	-0.03792981
102	0x3d06ef32	0.03294296
103	0xbceff604	-0.029292114
104	0x3cba8b6c	0.02277156
105	0x3cea92d0	0.028634459
106	0xbc618068	-0.013763525
107	0xbd7e67f4	-0.062110856
108	0x3d393a5c	0.04522167
109	0x3bf15d50	0.00736586
110	0x3c9b1d70	0.018934935
111	0x3c791908	0.015203722
112	0xbd5bea44	-0.05369021
113	0xbb698480	-0.0035631955
114	0x3cf7cfd0	0.03025046
115	0x3d138ca8	0.036022812
116	0xbd20cbc0	-0.03925681
117	0xbcb20e14	-0.021735229
118	0x3cce6ed4	0.025199331
119	0x3c349048	0.011020727
120	0x3d71f9ec	0.059076235
121	0xbd5e05d6	-0.054204784
122	0x3d619e26	0.055082463
123	0x3d433ffc	0.047668442
124	0xbd771ff4	-0.060333207
125	0xbd47bed8	-0.048765987
126	0xbd10a55a	-0.03531394
127	0x3d638e10	0.055555403
128	0x3d10d25c	0.035356864
129	0xbd7b502c	-0.061355755
130	0xbd3d7a60	-0.046259284
131	0xbcb96020	-0.022628844
132	0x3d3f0de6	0.046644114
133	0xbd0a3960	-0.033746123
134	0xbd7496f4	-0.059714273
135	0x3cb5e8cc	0.022205733
136	0xbd5800c6	-0.052735113
137	0x3cb65c80	0.022260904
138	0x3ca89b28	0.020581797
139	0x3d5b1548	0.053487092
140	0x3b9dbb30	0.0048135743
141	0x3d115b1a	0.03548727
142	0x3d2a8628	0.041631848
143	0xbd60b182	-0.054856785
144	0xbd097e3c	-0.033567652
145	0xbb339d00	-0.0027406812
146	0x39c0bb00	0.0003676042
147	0xbd5b1f1c	-0.053496465
148	0xbcda596c	-0.026653968
149	0xbc8fe1e4	-0.017563768
150	0xbd1a4dfe	-0.037672035
151	0xbbb9c840	-0.0056696236
152	0x3d78f130	0.06077689
153	0x3d2e1bb4	0.04250689
154	0x3c261fd0	0.010139421
155	0xbbc653f0	-0.0060524866
156	0x3d355ee6	0.044279955
157	0x3c06e660	0.008233637
158	0x3d7e1612	0.062032767
159	0x3d428ef8	0.047499627
160	0xbd5d4b38	-0.054026812
161	0x3c031210	0.007999912
162	0xbd17beca	-0.037047185
163	0xbd61a72c	-0.05509107
164	0x3b5476a0	0.0032419339
165	0xbd3fd686	-0.046835445
166	0x3d3befc6	0.045882963
167	0xb9f38b00	-0.00046452135
168	0x3d2cfc2c	0.042232677
169	0x3c768a18	0.015047573
170	0x3d7259ec	0.059167787
171	0x3b1f5580	0.0024312437
172	0xbd6f2fa8	-0.058395058
173	0xbcb2d64c	-0.0218307
174	0x3c87b6ac	0.016566597
175	0x3d53cda2	0.05170978
176	0xbc956bfc	-0.018239968
177	0x3d17d512	0.037068434
178	0x3c288c80	0.010287404
179	0x3bd28580	0.006424606
180	0xbc9b6368	-0.018968299
181	0x3d593a14	0.053033903
182	0x3d112286	0.035433315
183	0xbd418f1c	-0.04725562
184	0xbc2aa860	-0.01041612
185	0xbd13e03c	-0.03610252
186	0x3d69d6ba	0.057089545
187	0x3c8f1d1c	0.017469935
188	0x3c0acbb0	0.008471414
189	0xbd630d58	-0.055432647
190	0x3cfb69e0	0.030690134
191	0x3c0520c8	0.008125491
192	0xbc8806f8	-0.016604885
193	0x3cabffa8	0.02099593
194	0xbd184fc8	-0.03718546
195	0x3cd88014	0.02642826
196	0x3cf4d508	0.029886737
197	0x3d6ad1a4	0.057328835
198	0x3d55f0aa	0.05223147
199	0xbcdfb940	-0.027310014
200	0x3c889630	0.016673177
201	0xbd2cfc84	-0.042233005
202	0x3d041e4c	0.032255456
203	0xbd5e1232	-0.05421657
204	0x3d48fca8	0.049069077
205	0x3d725334	0.05916138
206	0xbd7123b0	-0.058871925
207	0xbce02468	-0.02736111
208	0x3ac0da40	0.0014713481
209	0xbd5811c0	-0.052751303
210	0x3c415ca0	0.011801869
211	0xbd60b64a	-0.054861344
212	0xbd6ab3f6	-0.05730053
213	0xbd727b40	-0.05919957
214	0x3d47df50	0.04879695
215	0x3cb76968	0.022389129
216	0x3d2d7574	0.04234834
217	0xbd1f2038	-0.038849086
218	0xbbafa900	-0.0053607225
219	0xbd08202c	-0.033233806
220	0xbd2e92aa	-0.04262034
221	0xbb4b3620	-0.0031007603
222	0xbd2b2b48	-0.041789323
223	0x3ce452ac	0.027871452
224	0xbd0d9a92	-0.034571238
225	0xbd0e50a0	-0.03474486
226	0xbd0f2d7c	-0.034955487
227	0x3d7bbb52	0.06145794
228	0xbd6e03f2	-0.05810923
229	0xbd10cc30	-0.03535098
230	0xbd6098c8	-0.054833204
231	0xbb5fc420	-0.0034144
232	0xbca20a1c	-0.019780211
233	0xbcdcb778	-0.026942953
234	0x3ca06efc	0.019584171
235	0xbc5a3c38	-0.013320021
236	0x3d0304ea	0.03198711
237	0xbd029dec	-0.031888887
238	0xbc708b20	-0.0146816075
239	0xbcf55664	-0.02994842
240	0xbb8be760	-0.0042695254
241	0x3d2458fe	0.040123932
242	0xbd2284a2	-0.03967727
243	0xbd546818	-0.051857084
244	0x3d00af40	0.03141713
245	0xbd08d3de	-0.033405177
246	0x3cfedd9c	0.031111531
247	0x3cb1d09c	0.021705918
248	0xbcf1e5d4	-0.029528536
249	0x3c04c720	0.008104116
250	0x3d0b6b40	0.03403783
251	0xbd20c0e0	-0.03924644
252	0x3d7caca2	0.061688073
253	0xbd1d7aac	-0.038447067
254	0x3d67ef28	0.05662456
255	0xbcaa8bac	-0.020818554

decoder.0.bias f4 [16]
0	0xbd24820e	-0.040163092
1	0xbb9b8e92	-0.0047472203
2	0x3d802531	0.06257094
3	0xbd245afa	-0.040125825
4	0x3d04570e	0.032309584
5	0x3d85b733	0.06529083
6	0x3b060d76	0.00204548
7	0x3d0c990b	0.03432564
8	0x3c40fbc1	0.011778773
9	0xbd28e318	-0.0412322
10	0x3be14a70	0.0068753287
11	0x3cf7701d	0.030204827
12	0xbd5d004a	-0.053955354
13	0xbd022510	-0.031773627
14	0x3ccb4d24	0.024817057
15	0xbd681b92	-0.056666918

decoder.2.weight f4 [16, 1, 4, 4]
0	0xbdb1bd6c	-0.086787075
1	0x3cfe00c0	0.031006217
2	0xbd28ce28	-0.04121223
3	0x3e4e8988	0.20169652
4	0x3e76b17e	0.24091145
5	0x3e3e78f8	0.18600833
6	0xbca701b0	-0.020386547
7	0x3b477f80	0.0030440986
8	0x3daacd3c	0.083399266
9	0xbdfed8f8	-0.12443727
10	0x3e7ad0e0	0.24493742
11	0x3e65af00	0.22430038
12	0xbe1a56fa	-0.15072241
13	0x3e6268ac	0.22110242
14	0xbe47d98c	-0.19516581
15	0x3c42f640	0.011899531
16	0x3dc2cb60	0.09511447
17	0xbc4efd12	-0.012633579
18	0x3e61adc5	0.22038944
19	0xbd2b3e62	-0.04180754
20	0xbddfb155	-0.10922495
21	0x3e42225e	0.18958423
22	0x3d0b0a70	0.0339455
23	0xbd8b7bbc	-0.0681071
24	0x3c2f6efe	0.010707615
25	0xbe619701	-0.2203026
26	0xbe3ad71f	-0.18246125
27	0x3d3e1e38	0.046415538
28	0x3de7a628	0.11310989
29	0x3e071852	0.13192871
30	0x3e4dc9e9	0.20096554
31	0x3ddd5c4b	0.10808619
32	0xbdd786f3	-0.105237864
33	0x3ce353bd	0.02774989
34	0x3e18b03d	0.1491098
35	0xbd2a4477	-0.0415692
36	0x3cdedcab	0.027204832
37	0x3dd8d2ab	0.10587057
38	0xbe03f87a	-0.12887755
39	0xbc0bba49	-0.008528301
40	0x3dc31317	0.095251255
41	0x3d891605	0.06693653
42	0xbe023cba	-0.12718478
43	0x3dc57bc4	0.09642747
44	0x3d206b1e	0.039164655
45	0xbe810072	-0.25195652
46	0xbe41832f	-0.18897699
47	0xbd91666c	-0.070996135
48	0x3d60840d	0.054813433
49	0x3e44ebd1	0.19230582
50	0x3e35fc8c	0.1777212
51	0xbe292e12	-0.1652148
52	0xbe0a0791	-0.13479449
53	0x3d66d97f	0.056359764
54	0xbe242d39	-0.16032876
55	0x3dbf16df	0.09330534
56	0xbdc3365c	-0.095318526
57	0xbe3daadc	-0.18522209
58	0x3dc9e19a	0.09857483
59	0x3e05863d	0.13039489
60	0xbe045c96	-0.12925944
61	0x3e398df7	0.18120562
62	0x3cd15e10	0.025557548
63	0xbe20f936	-0.15720066
64	0xbd699279	-0.057024453
65	0xbe033471	-0.12812974
66	0x3d8db63c	0.06919524
67	0xbd816db3	-0.063197516
68	0xbe757099	-0.23968734
69	0xbe0deedc	-0.13860649
70	0xbe52ba50	-0.20578885
71	0x3e1351c4	0.1438666
72	0xbded26e2	-0.11579682
73	0x3ce09d0d	0.027418638
74	0xbc2d65dc	-0.010583367
75	0x3ddb5d8b	0.10711201
76	0x3c0ff606	0.008786684
77	0x3e5e7d31	0.21727444
78	0x3dcd4c43	0.100243114
79	0xbe55a46c	-0.20863503
80	0x3ce6a64e	0.028155472
81	0x3d9bc397	0.07605665
82	0xbe845c45	-0.25851646
83	0xbe395903	-0.18100362
84	0x3e1e6747	0.15469085
85	0xbe095a83	-0.13413434
86	0xbdbe66d3	-0.09296956
87	0xbdc9688e	-0.09834395
88	0xbe2ece24	-0.17070824
89	0x3d934c34	0.07192269
90	0x3dfa4e33	0.122219466
91	0xbe6bc406	-0.23023996
92	0x3e1a0c2d	0.15043707
93	0x3db26592	0.08710779
94	0x3ce0b59e	0.027430352
95	0xbe25a5ad	-0.16176482
96	0x3e493c37	0.19651876
97	0x3e4f51c7	0.2024604
98	0xbdce0004	-0.10058597
99	0x3e56e48f	0.20985626
100	0xbcee879b	-0.029117396
101	0x3c416c38	0.0118055865
102	0xbd0f4ff8	-0.034988374
103	0xbc7e66a0	-0.015527397
104	0xbdfc53df	-0.12320685
105	0x3e193484	0.1496144
106	0xbc1e972c	-0.009679597
107	0xbde2ec1e	-0.11080192
108	0xbdeaf155	-0.11471812
109	0xbe576332	-0.21033934
110	0x3dd9f755	0.10642878
111	0x3e23d330	0.1599853
112	0x3dad3f26	0.0845931
113	0xbd91516a	-0.070956066
114	0x3d430a7e	0.047617428
115	0x3df9a242	0.12189151
116	0x3e61fed7	0.2206987
117	0xbdffbadc	-0.124868125
118	0xbe79b8d6	-0.24386916
119	0xbe384afd	-0.17997356
120	0xbcc3673b	-0.023852935
121	0xbe555864	-0.208345
122	0xbe1a59c9	-0.15073313
123	0x3e47a2e6	0.19495735
124	0x3e032fa3	0.1281114
125	0xbe39e2c3	-0.18152909
126	0xbdcd5434	-0.10025826
127	0xbe403df9	-0.1877364
128	0x3d5e4d07	0.054272678
129	0x3ddaa82e	0.10676609
130	0x3d68457b	0.056706887
131	0x3d8102da	0.06299372
132	0x3cbdfce7	0.023191882
133	0x3e1234e7	0.14277993
134	0x3db7fdce	0.08983956
135	0xbc600fe4	-0.013675664
136	0xbcb5bac0	-0.022183776
137	0xbce547e8	-0.02798839
138	0x3ce567ce	0.0280036
139	0xbe64abea	-0.22331205
140	0xbdbc0554	-0.09180704
141	0x3dcf20b3	0.10113659
142	0x3e4e8650	0.20168424
143	0xbe453fd0	-0.19262624
144	0xbda8548c	-0.08219251
145	0xbd9c46a0	-0.07630658
146	0xbe7e0190	-0.24805284
147	0xbd94f800	-0.07273865
148	0xbd4ba670	-0.049719274
149	0xbe55f71c	-0.20895046
150	0xbda574d4	-0.08078924
151	0x3e53a5a0	0.2066865
152	0x3e5ff440	0.21870518
153	0x3df5fbbc	0.12010905
154	0x3d30c8c0	0.0431602
155	0x3dec2388	0.115302145
156	0xbcd76fd0	-0.026298434
157	0x3e4c7c0a	0.19969192
158	0x3c289ce0	0.010291308
159	0xbe5dd88a	-0.21664634
160	0x3e403ed9	0.18773974
161	0x3e770371	0.24122407
162	0x3c390cec	0.011294585
163	0x3e539531	0.20662381
164	0xbc9f131f	-0.019418297
165	0xbe22c312	-0.15894726
166	0x3df87451	0.121315606
167	0x3e4f03fe	0.20216367
168	0x3e14bd16	0.14525256
169	0xbcd972ca	-0.026543994
170	0xbe6f745e	-0.23384234
171	0xbd9a60c7	-0.0753799
172	0xbce34ccc	-0.02774658
173	0xbe073fb0	-0.13207889
174	0x3da5e820	0.08100915
175	0xbe61c116	-0.22046313
176	0x3e3614a0	0.17781305
177	0x3dfa567c	0.12223527
178	0x3e02a1c1	0.12757017
179	0xbe7788e8	-0.2417332
180	0x3e02034f	0.12696575
181	0x3e14293a	0.14468852
182	0x3db77bd8	0.08959168
183	0xbe372240	-0.17884159
184	0xbd0df2e1	-0.034655455
185	0xbdf0f2bc	-0.11765048
186	0x3e4b53f1	0.1985624
187	0x3e1bc14e	0.15210459
188	0x3cce4760	0.025180519
189	0xbe6d7cdc	-0.23192161
190	0x3e3fa097	0.18713604
191	0x3e2e90af	0.1704738
192	0x3e6dcd7a	0.23222914
193	0xbe1b2b6a	-0.1515328
194	0xbe04f686	-0.12984666
195	0x3de07290	0.10959351
196	0xbe27a844	-0.16372782
197	0xbdc33894	-0.09532276
198	0x3ddc3350	0.107519746
199	0xbe61d826	-0.2205511
200	0xbdc0a35c	-0.09406158
201	0xbe36f5f0	-0.17867255
202	0x3df0aad8	0.11751336
203	0xbdaaf648	-0.08347756
204	0xbe4a1632	-0.1973503
205	0xbd9c75a8	-0.07639629
206	0xbe685e46	-0.22692212
207	0x3db39f88	0.087706625
208	0xbe155925	-0.14584787
209	0xbdda9629	-0.10673172
210	0xbdd15e21	-0.10223032
211	0xbe81883c	-0.2529925
212	0xbe2531ea	-0.16132322
213	0xbe44845a	-0.19191113
214	0xbe2afebe	-0.16698739
215	0x3e5a93aa	0.21345392
216	0xbe4099d4	-0.18808681
217	0xbe5b440c	-0.21412677
218	0xbe045937	-0.12924658
219	0xbe07cd07	-0.13261805
220	0x3da55748	0.08073288
221	0x3dd4daa3	0.10393264
222	0x3dd2e968	0.10298425
223	0x3e06be78	0.13158596
224	0x3de4d653	0.111736916
225	0xbde12cca	-0.10994871
226	0xbd321c98	-0.0434843
227	0x3dcdf166	0.10055809
228	0xbe338839	-0.17532434
229	0x3e2a44b1	0.16627766
230	0xbda05623	-0.07828929
231	0x3e03decf	0.12877963
232	0xbdafc5ef	-0.08582675
233	0x3dcfb28e	0.101414785
234	0xbd499705	-0.04921629
235	0xbd08d13c	-0.033402666
236	0x3d866f10	0.06564152
237	0xbe5a0b48	-0.21293366
238	0xbe3cef73	-0.18450718
239	0xbe232115	-0.15930589
240	0xbe44fbb4	-0.19236642
241	0x3d44c5c8	0.04804018
242	0x3e3ea0d6	0.18616042
243	0x3e0a701c	0.13519329
244	0xbdb82088	-0.0899058
245	0xbc9e76d0	-0.019343764
246	0xbd80a130	-0.06280744
247	0xbd99a324	-0.0750182
248	0xbdc2c028	-0.09509307
249	0x3d6b81e8	0.057496935
250	0xbe3c51d4	-0.1839059
251	0xbe44027e	-0.19141576
252	0x3b911f40	0.004428774
253	0xbdfe9ecc	-0.12432632
254	0xbe1d479c	-0.15359348
255	0xbca4b160	-0.02010411
